…
ngths and odd dilation may require a zero-padded copy of the input be created (Triggered internally at /pytorch/aten/src/ATen/native/Convolution.cpp:1027.)
  x = F.silu(F.conv1d(input=x, weight=self.conv1d_x.weight, bias=self.conv1d_x.bias, padding='same', groups=self.d_inner//2))
===============================================================================================
Layer (type:depth-idx)                        Output Shape              Param #
===============================================================================================
BraMT                                         [1, 19, 30, 200]          --
├─PatchEmbedding: 1-1                         [1, 19, 30, 200]          200
│    └─Sequential: 2-1                        [1, 25, 570, 8]           --
│    │    └─Conv2d: 3-1                       [1, 25, 570, 8]           1,250
│    │    └─GroupNorm: 3-2                    [1, 25, 570, 8]           50
│    │    └─GELU: 3-3                         [1, 25, 570, 8]           --
│    │    └─Conv2d: 3-4                       [1, 25, 570, 8]           1,900
│    │    └─GroupNorm: 3-5                    [1, 25, 570, 8]           50
│    │    └─GELU: 3-6                         [1, 25, 570, 8]           --
│    │    └─Conv2d: 3-7                       [1, 25, 570, 8]           1,900
│    │    └─GroupNorm: 3-8                    [1, 25, 570, 8]           50
│    │    └─GELU: 3-9                         [1, 25, 570, 8]           --
│    └─Sequential: 2-2                        [1, 19, 30, 200]          --
│    │    └─Linear: 3-10                      [1, 19, 30, 200]          20,400
│    │    └─Dropout: 3-11                     [1, 19, 30, 200]          --
│    └─Sequential: 2-3                        [1, 200, 19, 30]          --
│    │    └─Conv2d: 3-12                      [1, 200, 19, 30]          26,800
├─HybridEncoder: 1-2                          [1, 19, 30, 200]          --
│    └─ModuleList: 2-4                        --                        --
│    │    └─HybridEncoderLayer: 3-13          [1, 19, 30, 200]          1,216,400
│    │    └─HybridEncoderLayer: 3-14          [1, 19, 30, 200]          482,600
├─Sequential: 1-3                             [1, 19, 30, 200]          --
│    └─Linear: 2-5                            [1, 19, 30, 200]          40,200
===============================================================================================
Total params: 1,791,800
Trainable params: 1,791,600
Non-trainable params: 200
Total mult-adds (Units.MEGABYTES): 67.58
===============================================================================================
Input size (MB): 0.46
Forward/backward pass size (MB): 38.01
Params size (MB): 6.46
Estimated Total Size (MB): 44.92
…
